…
2023-08-24 10:11:23.297 | INFO     | __main__:<module>:69 - Set device: cuda:0
2023-08-24 10:11:23.299 | INFO     | __main__:<module>:72 - Set seed: 2333
2023-08-24 10:11:23.393 | INFO     | __main__:<module>:98 -   Model = %s
2023-08-24 10:11:23.393 | INFO     | __main__:<module>:99 -   Model parameters = %d
2023-08-24 10:12:41.955 | INFO     | __main__:<module>:66 - ================Starting================
2023-08-24 10:12:43.182 | INFO     | __main__:<module>:69 - Set device: cuda:0
2023-08-24 10:12:43.184 | INFO     | __main__:<module>:72 - Set seed: 2333
2023-08-24 10:12:43.247 | INFO     | __main__:<module>:98 - Model = OCET(
  (oce): Sequential(
    (0): Conv2d(1, 1, kernel_size=(4, 1), stride=(1, 1), padding=same)
    (1): Sigmoid()
  )
  (conv1): Sequential(
    (0): Conv2d(1, 2, kernel_size=(1, 2), stride=(1, 2))
    (1): LeakyReLU(negative_slope=0.01)
    (2): BatchNorm2d(2, eps=1e-05, momentum=0.1, affine=True, track_running_stats=True)
    (3): Conv2d(2, 4, kernel_size=(1, 2), stride=(1, 2))
    (4): LeakyReLU(negative_slope=0.01)
    (5): BatchNorm2d(4, eps=1e-05, momentum=0.1, affine=True, track_running_stats=True)
    (6): Conv2d(4, 40, kernel_size=(1, 10), stride=(1, 1))
    (7): LeakyReLU(negative_slope=0.01)
    (8): BatchNorm2d(40, eps=1e-05, momentum=0.1, affine=True, track_running_stats=True)
  )
  (transformer): Transformer(
    (layers): ModuleList(
      (0-1): 2 x ModuleList(
        (0): PreNorm(
          (norm): LayerNorm((100,), eps=1e-05, elementwise_affine=True)
          (fn): Attention(
            (attend): Softmax(dim=-1)
            (to_qkv): Linear(in_features=100, out_features=300, bias=False)
            (to_out): Sequential(
              (0): Linear(in_features=100, out_features=100, bias=True)
              (1): Dropout(p=0.0, inplace=False)
            )
          )
        )
        (1): PreNorm(
          (norm): LayerNorm((100,), eps=1e-05, elementwise_affine=True)
          (fn): FeedForward(
            (net): Sequential(
              (0): Linear(in_features=100, out_features=200, bias=True)
              (1): GELU(approximate='none')
              (2): Dropout(p=0.0, inplace=False)
              (3): Linear(in_features=200, out_features=100, bias=True)
              (4): Dropout(p=0.0, inplace=False)
            )
          )
        )
      )
    )
  )
  (fc): Linear(in_features=100, out_features=1, bias=True)
)
2023-08-24 10:12:43.248 | INFO     | __main__:<module>:99 - Model parameters = 163464
2023-08-24 10:21:58.527 | INFO     | __main__:<module>:66 - ================Starting================
2023-08-24 10:21:59.750 | INFO     | __main__:<module>:69 - Set device: cuda:0
2023-08-24 10:21:59.754 | INFO     | __main__:<module>:72 - Set seed: 2333
2023-08-24 10:29:10.759 | INFO     | __main__:<module>:66 - ================Starting================
…
